end_to_end_dev_v0/model/dev_v1.1_batch_size=2048_epoch=300.pt (torch_old, 211198 bytes, 10 tensors)

lstm.weight_ih_l0 f4 [256, 1]
-0.15718395 0.42130995 0.21889779 0.6343551 -0.04444252 0.46367356 0.43843952 0.17974402
0.06202725 -0.020816935 0.38268778 0.38195598 0.5293826 0.49666208 0.52084506 0.120753065
0.38487422 0.0076765474 0.26305386 1.120327 0.14446333 0.10538868 -0.16420507 -0.10492603
0.36646402 0.11934047 0.16416803 0.6586146 -0.11876415 -0.12174676 0.30117273 0.5183902
0.19443233 0.22813843 -0.07465966 0.736794 0.23747376 0.70325184 0.2061903 0.034062386
0.28412178 0.25347337 0.24886683 0.27394068 0.42011204 0.0688211 0.20308356 -0.11561147
-0.114001036 0.2251119 0.14840335 0.56027967 0.7255661 0.09423112 0.09269433 -0.11667451
0.23231684 0.82716215 0.40975198 -0.1510829 0.8855467 0.14654197 0.19520663 0.51175857
-0.16496664 -0.03814968 -0.056230422 -0.059925992 0.074566506 0.56439584 -0.07906538 0.21111491
0.12877572 0.07488614 0.24003552 0.14583932 0.22439192 -0.17172477 0.15772195 0.19850947
-0.069313124 0.20800994 0.12040873 0.14487779 0.14516254 0.07191041 -0.1578792 -0.22936663
0.038141225 0.102314495 0.10165761 0.11960855 -0.19447744 -0.15654916 0.1689409 0.37888902
0.09589322 0.1267199 -0.13459083 0.08977847 0.05699144 -0.035692424 -0.106260985 0.09317834
0.12300274 -0.09962487 -0.1590915 -0.14720865 0.073124886 0.042123415 -0.0695427 -0.05939342
-0.17110272 0.10544848 0.0785532 0.3200714 0.2009172 0.06534435 -0.027812717 -0.23422372
-0.05727482 0.31746933 -0.17407496 -0.15160036 0.6483997 0.05875172 0.14290251 0.20740275
0.4982867 0.21729173 -0.102883115 -0.055445995 0.12674853 0.4561123 -0.3013063 -0.15104295
-0.17218646 0.40935817 -0.1677381 0.4294052 -0.1881728 0.32593524 0.32183444 0.2121284
0.23368315 -0.07716059 0.33322966 -0.6371243 -0.049527995 -0.042920455 -0.37515992 -0.46528637
0.4447107 0.07496437 0.24183245 -0.17399165 0.70297176 0.4544046 0.084128305 -0.3741773
-0.11796426 -0.072622016 0.19185781 0.21426298 -0.14991714 0.60828894 0.12146834 -0.5020149
0.88577616 0.27958745 0.26028144 -0.09007413 -0.21001408 -0.18764627 -0.42698166 0.48492575
-0.30883056 0.067432866 -0.19090003 -0.16903532 0.2845952 -0.14394094 0.21839936 -0.35750347
-0.2547363 -0.30668813 -0.2510307 -0.35747004 0.59829843 0.052336268 -0.12011927 -0.090388454
0.2751588 0.43125427 0.31382293 0.41982213 0.24457599 -0.13935637 0.3565587 0.33456227
0.20680593 -0.31149685 0.4818376 -0.16047437 0.40426314 -0.1704699 0.41824222 0.09456697
-0.13982448 0.07660674 -0.21375792 -0.24471605 0.21746308 0.16114429 0.15488414 -0.11075353
0.33677658 0.14759658 0.21971458 0.5657734 0.8529651 0.54575044 0.25443864 0.42198887
0.26179758 0.2717617 0.38753504 0.30571568 0.20647678 -0.19955133 0.277443 0.13005255
-0.17212018 0.510044 0.35709774 0.24501114 -0.16099992 0.2814678 0.124816015 0.40322903
0.59644485 0.18663305 0.23827946 0.58977044 -0.12735803 0.29525548 0.09694378 0.6061439
0.22451207 -0.2185416 0.37103492 0.598579 -0.176542 0.26936498 0.24906106 0.38006428
00000000: d4f4 20be f0b5 d73e be26 603e 1965 223f
00000010: 5c09 36bd 9f66 ed3e 257b e03e d10e 383e
00000020: 4910 7e3d 4788 aabc a7ef c33e bc8f c33e
00000030: 9e85 073f 7e4a fe3e 1a56 053f 624d f73d
00000040: 3c0e c53e 8c8b fb3b ffae 863e e066 8f3f
00000050: 32ee 133e 05d6 d73d 6025 28be 75e3 d6bd
00000060: 2ca1 bb3e c768 f43d aa1b 283e f79a 283f
00000070: 9e3a f3bd 5e56 f9bd 5033 9a3e 38b5 043f
00000080: 4519 473e 1f9d 693e 2ae7 98bd 889e 3c3f
00000090: 522c 733e 5008 343f 8d23 533e 0085 0b3d
000000a0: 6978 913e 43c7 813e f2d6 7e3e f441 8c3e
000000b0: ed18 d73e 14f2 8c3d 23f5 4f3e b5c5 ecbd
000000c0: 6079 e9bd bc83 663e 0cf7 173e 7d6e 0f3f
000000d0: b3be 393f 3ffc c03d 86d6 bd3d 0cf3 eebd
000000e0: 77e4 6d3e e6c0 533f 03cb d13e 7ab5 1abe
000000f0: 30b3 623f 190f 163e 3fe4 473e 9c02 033f
00000100: 04ed 28be d742 1cbd df51 66bd f574 75bd
00000110: 53b6 983d 3f7c 103f 08ed a1bd 822e 583e
00000120: c8dd 033e e85d 993d dfcb 753e e756 153e
00000130: ffc6 653e 9ed8 2fbe dd81 213e 1146 4b3e
00000140: 0af4 8dbd 8f00 553e da98 f63d d85a 143e
00000150: 7da5 143e c445 933d 16ab 21be 16df 6abe
00000160: f939 1c3d 438a d13d dd31 d03d 54f5 f43d
00000170: 1825 47be 6c4e 20be d8fe 2c3e befd c13e
00000180: aa63 c43d ddc2 013e 2ed2 09be c6dd b73d
00000190: db6f 693d 3832 12bd 5c9f d9bd 49d4 be3d
000001a0: dce8 fb3d 2008 ccbd e2e8 22be ddbd 16be
000001b0: 80c2 953d 9a89 2c3d 676c 8ebd 8446 73bd
000001c0: 8d35 2fbe 5ff5 d73d 80e0 a03d 66e0 a33e
000001d0: 3dbd 4d3e 42d3 853d 7fd7 e3bc 58d8 6fbe
000001e0: 0099 6abd 578b a23e b540 32be 203d 1bbe
000001f0: 86fd 253f a5a5 703d 0955 123e 6361 543e
00000200: 6f1f ff3e b981 5e3e 62b4 d2bd 571b 63bd
00000210: 5eca 013e 8d87 e93e d244 9abe 01ab 1abe
00000220: a651 30be 6597 d13e 89c3 2bbe 00db db3e
00000230: 5fb0 40be fce0 a63e 7cc7 a43e 3038 593e
00000240: a34a 6f3e 5f06 9ebd 149d aa3e 941a 23bf
00000250: dedd 4abd 5ccd 2fbd f614 c0be 043a eebe
00000260: 1fb1 e33e eb86 993d eda2 773e de2a 32be
00000270: f5f5 333f b8a7 e83e 764b ac3d 2b94 bfbe
00000280: 3f97 f1bd daba 94bd 6076 443e c167 5b3e
00000290: e183 19be d3b8 1b3f 65c4 f83d 0c84 00bf
000002a0: 3ac2 623f 1626 8f3e 9c43 853e c978 b8bd
000002b0: ee0d 57be 5826 40be 579d dabe 3048 f83e
000002c0: 0a1f 9ebe 3e1a 8a3d 4c7b 43be 9817 2dbe
000002d0: 76b6 913e 4165 13be 15a4 5f3e b20a b7be
000002e0: cc6c 82be 3a06 9dbe 1987 80be 5006 b7be
000002f0: 162a 193f 8e5e 563d 1801 f6bd 951d b9bd
00000300: 9de1 8c3e 5ccd dc3e 66ad a03e edf2 d63e
00000310: 2172 7a3e 70b3 0ebe dd8e b63e bf4b ab3e
00000320: efc4 533e 847c 9fbe 6bb3 f63e 6553 24be
00000330: 94fb ce3e a98f 2ebe d823 d63e 54ac c13d
00000340: 262e 0fbe ffe3 9c3d 5be3 5abe d896 7abe
00000350: a4ae 5e3e 0203 253e f399 1e3e bfd2 e2bd
00000360: fb6d ac3e 8f23 173e dcfc 603e 87d6 103f
00000370: ec5b 5a3f 4db6 0b3f c845 823e ed0e d83e
00000380: 550a 863e 5924 8b3e fe6a c63e c486 9c3e
00000390: a66e 533e 2f57 4cbe 020d 8e3e 7f2c 053e
000003a0: 4640 30be 3e92 023f 84d5 b63e 33e4 7a3e
000003b0: 2add 24be 8c1c 903e 8a9f ff3d 0974 ce3e
000003c0: 9cb0 183f bc1c 3f3e 88ff 733e 32fb 163f
000003d0: 256a 02be ba2b 973e 768a c63d 3f2c 1b3f
000003e0: 7ee6 653e 5fc9 5fbe 4af8 bd3e 793c 193f
000003f0: 6dc7 34be 35ea 893e dd09 7f3e c997 c23e

lstm.weight_hh_l0 f4 [256, 64]
0.28701103 0.12857363 -0.27353495 0.02116581 0.037741955 -0.041616395 -0.08413977 0.06934582
-0.018302541 -0.14299591 0.03632404 0.21882506 -0.02611951 0.12447757 0.19125178 0.3898678
-0.048569895 0.0033527846 -0.02453767 0.013197642 -0.04829596 -0.17788757 -0.07954512 -0.15539426
0.06282701 -0.006958416 0.11780024 0.050470002 0.086286455 0.06204159 0.09960621 -0.060244232
-0.17905834 0.26652148 -0.18056571 0.13694513 0.017655654 0.053799365 0.024814911 -0.11838627
0.0104027875 0.09984849 0.04286874 0.077819094 -0.3702532 -0.030323032 0.025847184 -0.12925236
-0.04989059 0.22214432 -0.17657804 -0.024361487 -0.14892882 -0.035921898 0.41538364 -0.05505631
-0.09829347 0.13415521 -0.034157436 0.20253721 0.017751744 0.023414193 -0.10622803 -0.19907899
-0.31396475 0.18249266 -0.088760264 -0.21965404 0.30638528 0.944798 -0.33690864 -0.2506401
-0.3405232 0.816381 -0.1691851 -0.045032825 -0.09324335 0.20993884 0.47258443 -0.124650165
0.45146868 -0.05737808 0.52027303 0.021723146 -0.10270133 -0.18328692 -0.46353424 -0.06454526
0.4327994 0.18889284 0.31593633 -0.1553397 0.39568186 1.152037 0.4838001 -0.13280223
-0.31654844 -0.015998235 0.31077492 0.1123788 -0.28947073 -0.26327294 0.17059273 -0.20467705
0.25193477 0.37318432 0.22342905 -0.45697945 -0.24784817 -0.22146478 -0.2317211 0.41001454
-0.7029167 0.2960141 0.035015948 -0.33205685 0.48560825 -0.050963353 -0.05433336 -0.23956375
-0.26624122 -0.55224556 -0.4640618 -0.9387486 0.8407974 0.080009855 -0.02362306 -0.16722727
0.15495189 0.096237294 0.0060131205 -0.055374797 0.29031938 0.20108396 0.11775967 -0.113858886
-0.12681107 -0.034642927 -0.06945802 0.2161094 -0.0102127 0.16599438 0.042657755 -0.1139838
0.26033607 -0.1878236 0.12981604 -0.24227412 -0.11160125 -0.00430417 0.18413453 -0.124790356
0.0400663 -0.27899012 -0.15838562 0.21788105 0.0549513 0.1890797 0.18949842 0.068883166
-0.061021097 0.16647756 0.15124813 0.008638573 -0.06857692 0.055603467 -0.017589932 -0.14137208
0.11717782 0.16909005 0.15464889 -0.115700305 -0.020525338 -0.11757462 -0.21524921 0.10937399
-0.006918188 -0.008331727 -0.048592813 0.0159692 0.025940731 -0.096800625 -0.3057545 -0.04829455
0.032736067 -0.08295783 -0.053347092 0.17535767 0.101299286 0.19494808 -0.08952148 -0.29494467
0.5826853 0.10973672 -0.083821334 -0.14494362 0.19719636 0.014976239 -0.03344187 -0.22038954
-0.19424094 -0.11740076 -0.1812574 0.34000045 -0.061491344 0.224439 0.034068618 0.03755804
-0.016255815 -0.14797795 -0.036057975 -0.602613 -0.1454171 -0.35136542 -0.13658164 -0.28104612
-0.004175475 -0.014763666 0.047753304 0.10059885 0.3130406 0.3958766 0.26578146 -0.009063426
-0.14235835 -0.19701274 0.07627032 0.19980842 -0.17783804 0.4652463 0.15086232 -0.14345218
0.31645724 0.29329628 0.23431034 -0.058175765 -0.14033091 -0.20342046 -0.2045776 -0.05009673
-0.20143911 0.057550564 -0.082782924 -0.04402156 -0.11207307 -0.24929331 -0.0035514035 -0.3325414
0.016445799 -0.011847434 -0.08484268 -0.07674314 0.19530563 0.04263804 -0.2099264 -0.07969743
00000000: 1cf3 923e cea8 033e c60c 8cbe ec63 ad3c
00000010: 4f97 1a3d f475 2abd 7951 acbd 2e05 8e3d
00000020: 36ef 95bc 856d 12be 84c8 143d ad13 603e
00000030: 95f8 d5bc 19ee fe3d 82d7 433e c19c c73e
00000040: 3af1 46bd 64ba 5b3b 3903 c9bc ec3a 583c
00000050: fcd1 45bd 2928 36be 8de8 a2bd ac1f 1fbe
00000060: 73ab 803d 6d03 e4bb 4141 f13d a2b9 4e3d
00000070: f4b6 b03d 531f 7e3d 57fe cb3d a8c2 76bd
00000080: 125b 37be 8175 883e 38e6 38be 583b 0c3e
00000090: 97a2 903c b95c 5c3d a448 cb3c 8074 f2bd
000000a0: 7470 2a3c 5d7d cc3d 2297 2f3d 9e5f 9f3d
000000b0: d491 bdbe 0268 f8bc 79bd d33c bb5a 04be
000000c0: 135a 4cbd cd79 633e e0d0 34be be91 c7bc
000000d0: cc80 18be d722 13bd 2aad d43e ba82 61bd
000000e0: 164e c9bd fc5f 093e abe8 0bbd ea65 4f3e
000000f0: 1b6c 913c 1fcf bf3c 158e d9bd 5ddb 4bbe
00000100: fdbf a0be 5bdf 3a3e f1c7 b5bd fdec 60be
00000110: 88de 9c3e 48de 713f 4a7f acbe e653 80be
00000120: 0f59 aebe 58fe 503f dc3e 2dbe 5774 38bd
00000130: 5ff6 bebd 35fa 563e 96f6 f13e 9648 ffbd
00000140: e726 e73e 4705 6bbd 9d30 053f bdf4 b13c
00000150: 1355 d2bd 91af 3bbe 5c54 edbe 4e30 84bd
00000160: e297 dd3e 206d 413e 68c2 a13e 5f11 1fbe
00000170: d096 ca3e f375 933f a6b4 f73e 4ffd 07be
00000180: a312 a2be bb0e 83bc e41d 9f3e db26 e63d
00000190: 8235 94be b6cb 86be dcaf 2e3e dc96 51be
000001a0: 98fd 803e 0412 bf3e 96ca 643e 36f9 e9be
000001b0: e9cb 7dbe aac7 62be 4c48 6dbe 6ded d13e
000001c0: 59f2 33bf 298f 973e e26c 0f3d 5b03 aabe
000001d0: a5a1 f83e f3be 50bd a88c 5ebd 3350 75be
000001e0: c550 88be f75f 0dbf 8299 edbe d451 70bf
000001f0: 803e 573f 35dc a33d 2685 c1bc a03d 2bbe
00000200: b5ab 1e3e 0f18 c53d b609 c53b afd0 62bd
00000210: bea4 943e f4e8 4d3e fb2b f13d d92e e9bd
00000220: c3da 01be bee5 0dbd 0240 8ebd c84b 5d3e
00000230: 2b53 27bc 6efa 293e e6b9 2e3d 5770 e9bd
00000240: c54a 853e d454 40be 7fee 043e b516 78be
00000250: 328f e4bd ff09 8dbb c38d 3c3e 1692 ffbd
00000260: 901c 243d cbd7 8ebe d72f 22be 361c 5f3e
00000270: 9d14 613d 1c9e 413e e00b 423e 9e12 8d3d
00000280: 42f1 79bd 1879 2a3e cae0 1a3e cd88 0d3c
00000290: 0e72 8cbd 76c0 633d c318 90bc d8c3 10be
000002a0: edfa ef3d f125 2d3e 475c 1e3e 48f4 ecbd
000002b0: c124 a8bc f6ca f0bd 4a6a 5cbe 78ff df3d
000002c0: f8b1 e2bb cc81 08bc 4209 47bd d7d1 823c
000002d0: a881 d43c 683f c6bd db8b 9cbe 82d0 45bd
000002e0: 4116 063d cbe5 a9bd 7b82 5abd f690 333e
000002f0: 0076 cf3d 78a0 473e 0a57 b7bd fd02 97be
00000300: dd2a 153f a5bd e03d 85aa abbd 1a6c 14be
00000310: d8ed 493e e65e 753c 58fa 08bd ccad 61be
00000320: 19e7 46be cf6f f0bd 8a9b 39be 8a14 ae3e
00000330: 59de 7bbd 56d3 653e 898b 0b3d 76d6 193d
00000340: ea2a 85bc 8887 17be 87b1 13bd d844 1abf
00000350: 38e8 14be 2be6 b3be 0fdc 0bbe 47e5 8fbe
00000360: 6cd2 88bb 4ee3 71bc f898 433d c506 ce3d
00000370: dc46 a03e 56b0 ca3e 8214 883e c47e 14bc
00000380: 63c6 11be b5bd 49be 9d33 9c3d 949a 4c3e
00000390: 2d1b 36be c334 ee3e a77b 1a3e 21e5 12be
000003a0: af06 a23e ee2a 963e 0def 6f3e b649 6ebd
000003b0: e8b2 0fbe 744d 50be ca7c 51be 3b32 4dbd
000003c0: 0e46 4ebe 24ba 6b3d 188a a9bd f44f 34bd
000003d0: 9186 e5bd bf46 7fbe aabe 68bb de42 aabe
000003e0: 57b9 863c bd1b 42bc 00c2 adbd 822b 9dbd
000003f0: 33fe 473e 3aa5 2e3d f2f6 56be 6838 a3bd

lstm.bias_ih_l0 f4 [256]
0.6163913 -0.17592995 0.072650366 0.57997346 0.21414302 0.30898815 -0.45453516 0.40701362
-0.0063821776 0.2138609 0.112990566 0.64657855 0.8331803 0.38385335 0.41344342 -0.26370648
0.69275266 0.060050756 0.21189724 0.9020041 0.26535767 -0.116782 0.59898823 0.50421596
-0.66963553 -0.20980807 -0.2358197 0.8783325 0.59101963 0.39145148 0.061640307 -0.48017946
0.11952906 0.4001269 0.27860975 0.454715 0.04629826 1.0112065 0.15733923 0.079294994
0.7983445 0.44146985 -0.028674025 -0.038564716 0.55383784 0.31713498 0.22581862 0.50215745
0.67017627 0.014718858 0.23058581 -0.18939957 0.2511447 0.17805077 -0.6512694 0.67375
0.033699725 -0.1346535 -0.27723277 0.9764194 0.5261509 0.055262294 0.02136352 0.22965166
0.2586571 -0.055957407 -0.057642065 -0.11454357 0.0682051 -0.29457414 -0.083329484 0.026939122
0.043744486 -0.039726943 -0.072634295 -0.04581878 -0.056774978 0.033447333 -0.16772032 -0.087464474
0.08362463 0.082395144 -0.12777762 0.0134327505 -0.07605113 0.09050579 -0.15611121 0.08661361
-0.047283426 0.05660264 -0.15086576 -0.13546737 0.19016112 0.095220596 0.019865662 -0.17660554
-0.061265167 -0.12022351 0.11947874 0.024859302 -0.079884484 0.2412023 -0.11276337 0.050904855
0.108182326 0.10695696 -0.1194701 0.08299182 -0.05531334 -0.04266941 0.07738521 0.072544225
-0.101705134 -0.008447298 -0.1422423 -0.16558105 -0.0688003 0.0018015372 -0.07362928 0.10506937
0.07908726 -0.14039469 -0.056388948 -0.14129038 0.17095558 0.07222114 -0.072596245 -0.005632923
0.8387225 -0.3066446 0.11943016 0.44613242 -0.19962277 -0.52569145 0.2849694 0.40318176
-0.037513368 -0.27105564 0.21730542 0.2206473 0.6856604 0.42015916 -0.62396246 -0.13795727
-0.5088363 -0.02806353 -0.39508316 -0.43504208 0.3278973 0.25805375 0.087939 -0.34236935
-0.14235888 -0.042445272 -0.12974308 0.68488216 0.5069099 0.33668175 0.11725302 0.39854676
0.19440655 -0.078275084 0.042452503 -0.4981879 0.20060126 0.73266876 -0.016879227 -0.11557287
-0.27304852 0.3180295 0.20288496 0.040121403 -0.25614774 0.59120274 -0.08390783 -0.42316726
-0.42162672 0.13662647 0.15937862 0.26353407 -0.387799 0.32216758 -0.15653074 -0.5114663
-0.06396969 0.6053167 0.11931408 0.4580088 0.38410574 -0.48282272 -0.113629706 1.0127213
1.0622654 0.2018753 -0.2992307 0.3680239 0.16103762 0.64162225 0.10879621 0.4599292
-0.036421318 0.41114613 0.007552809 0.5983197 0.7596609 0.56856817 0.5581013 -0.013971796
1.0259575 0.010427883 0.6279938 1.0334587 0.013289269 0.052950572 0.22809824 0.7502862
0.06637074 -0.08885265 -0.17226529 0.44049764 0.676243 0.37912172 0.25892505 0.044954956
0.06908772 0.25286776 -0.018753128 0.20292163 0.17481111 0.9119946 0.081886366 0.18437588
0.48720896 0.1582024 0.16078039 0.084412254 0.3465781 0.12240599 0.2152057 -0.12799878
0.6583641 0.030536102 0.10915835 0.16528833 0.77354485 0.060779423 -0.40017647 0.6028627
0.08372345 0.84661776 0.0460717 -0.161949 0.73470324 -0.052348137 0.0643778 0.019639775
00000000: d2cb 1d3f fb26 34be b7c9 943d 2479 143f
00000010: 4f48 5b3e b233 9e3e d5b8 e8be 1764 d03e
00000020: 9621 d1bb 5afe 5a3e 9967 e73d 2c86 253f
00000030: 4e4b 553f 6d88 c43e dbae d33e 8904 87be
00000040: 3d58 313f c8f7 753d 97fb 583e bee9 663f
00000050: f6dc 873e 672b efbd 4b57 193f 4c14 013f
00000060: 3c6d 2bbf edd7 56be b87a 71be 66da 603f
00000070: 104d 173f 546c c83e 8c7a 7c3d 15da f5be
00000080: a7cb f43d 6fdd cc3e f0a5 8e3e 68d0 e83e
00000090: 3fa3 3d3d 376f 813f 891d 213e 6a65 a23d
000000a0: 4e60 4c3f 5608 e23e cae5 eabc 09f6 1dbd
000000b0: 51c8 0d3f 845f a23e ff3c 673e 648d 003f
000000c0: ac90 2b3f 5d27 713c b01e 6c3e f6f1 41be
000000d0: 0a96 803e f152 363e 97b9 26bf e17a 2c3f
000000e0: b908 0a3d 9be2 09be 74f1 8dbe 9ff6 793f
000000f0: d3b1 063f b75a 623d 8c02 af3c ce29 6b3e
00000100: b46e 843e 9833 65bd 161a 6cbd d295 eabd
00000110: 1eaf 8b3d 6cd2 96be a6a8 aabd 6faf dc3c
00000120: 6b2d 333d b8b8 22bd 4ac1 94bd 79ac 3bbd
00000130: e18c 68bd 1200 093d e0be 2bbe 9320 b3bd
00000140: 6443 ab3d c9be a83d 23d8 02be 0a15 5c3c
00000150: b2c0 9bbd 1a5b b93d 9edb 1fbe 7a62 b13d
00000160: 44ac 41bd 2bd8 673d 8e7c 1abe f5b7 0abe
00000170: 99b9 423e 0403 c33d 50bd a23c 15d8 34be
00000180: 2ff1 7abd be37 f6bd 45b1 f43d bca5 cb3c
00000190: 7a9a a3bd bcfd 763e 7bf0 e6bd 9c81 503d
000001a0: b28e dd3d 400c db3d bdac f4bd 9ef7 a93d
000001b0: 3e90 62bd 1fc6 2ebd 237c 9e3d 1192 943d
000001c0: c84a d0bd 8966 0abc f7a7 11be 148e 29be
000001d0: 2ce7 8cbd 8f21 ec3a f3ca 96bd 9c2e d73d
000001e0: 80f8 a13d a0c3 0fbe 19f8 66bd 6dae 10be
000001f0: fb0e 2f3e ade8 933d 57ad 94bd 6294 b8bb
00000200: 85b6 563f 8500 9dbe cd97 f43d 786b e43e
00000210: e969 4cbe b793 06bf 82e7 913e d76d ce3e
00000220: 9ea7 19bd cec7 8abe 5085 5e3e 5ef1 613e
00000230: 7187 2f3f 1a1f d73e 01bc 1fbf ac44 0dbe
00000240: 1943 02bf 7de5 e5bc 5748 cabe d6bd debe
00000250: 28e2 a73e 9f1f 843e 5d19 b43d 094b afbe
00000260: 87c6 11be 18db 2dbd 5fdb 04be 7054 2f3f
00000270: d9c4 013f 8d61 ac3e 5a22 f03d 520e cc3e
00000280: 8312 473e b04e a0bd ade2 2d3d 7c12 ffbe
00000290: 6b6a 4d3e 2e90 3b3f 4e46 8abc 78b1 ecbd
000002a0: 04cd 8bbe c3d4 a23e 13c1 4f3e 5756 243d
000002b0: cc25 83be 1059 173f ded7 abbd 61a9 d8be
000002c0: 75df d7be cfe7 0b3e 2634 233e f0ed 863e
000002d0: 978d c6be 26f3 a43e 9849 20be 75ef 02bf
000002e0: 8a02 83bd 09f6 1a3f f15a f43d 2180 ea3e
000002f0: 82a9 c43e 8a34 f7be b1b6 e8bd daa0 813f
00000300: 50f8 873f 66b8 4e3e c434 99be a16d bc3e
00000310: 0ce7 243e 5b41 243f 8cd0 de3d d77b eb3e
00000320: 852e 15bd bf81 d23e 8e7d f73b 7b2b 193f
00000330: 2379 423f af8d 113f badf 0e3f f6e9 64bc
00000340: 9352 833f b6d9 2a3c 34c4 203f 6048 843f
00000350: 3cbb 593c b3e2 583d 9692 693e c212 403f
00000360: 62ed 873d 61f8 b5bd 5066 30be e888 e13e
00000370: 431e 2d3f 3e1c c23e d391 843e b022 383d
00000380: dd7d 8d3d e277 813e 29a0 99bc b0ca 4f3e
00000390: af01 333e 7a78 693f 0ab4 a73d 08cd 3c3e
000003a0: 7473 f93e cfff 213e 9da3 243e 55e0 ac3d
000003b0: af72 b13e feaf fa3d e25e 5c3e 1d12 03be
000003c0: 8d8a 283f d926 fa3c 6a8e df3d 5841 293e
000003d0: 0907 463f d8f3 783d eee3 ccbe 3655 1a3f
000003e0: 3377 ab3d f1bb 583f aeb5 3c3d f5d5 25be
000003f0: 8315 3c3f 006b 56bd 82d8 833d 98e3 a03c

lstm.bias_hh_l0 f4 [256]
0.6745249 -0.2633715 0.11223787 0.60536015 0.14076439 0.20605147 -0.43153954 0.38724726
0.11175687 0.401996 -0.02698565 0.6058068 0.70683247 0.42694345 0.29404703 -0.35200182
0.5730498 0.09463068 0.12261298 0.9817198 0.21496554 -0.024059327 0.55363464 0.66141516
-0.7240686 -0.19661729 -0.077406384 0.8973047 0.69321144 0.56015193 0.052142408 -0.4478805
0.0047849305 0.20584802 0.17185324 0.41047734 0.21860328 0.9294394 -0.010570883 0.25394693
0.8184114 0.3260145 0.032852016 0.01833358 0.5196551 0.24370576 0.19054997 0.30510676
0.52229875 -0.06621454 0.18143462 -0.043874554 0.41468498 0.32531282 -0.5557982 0.6562522
-0.0031629188 -0.0928582 -0.2683591 0.8952587 0.5965204 0.025130628 0.17387001 0.24778222
0.20903975 0.04860432 0.061394237 -0.047423743 0.1497824 -0.12227528 -0.029634772 -0.0969802
-0.10127258 -0.02280549 -0.0008761672 -0.022697616 -0.16182259 0.031227296 0.027095 -0.2545944
0.099268146 0.03656547 0.013214246 0.14593218 -0.042431187 0.02752658 -0.10737612 0.25656983
-0.024678418 -0.06468795 0.031064345 0.057526536 0.12109093 0.013082913 -0.0907484 -0.024697578
-0.036339704 -0.1491831 -0.066368066 -0.09589868 -0.07623841 0.1365907 -0.11376606 0.1018784
0.037455898 -0.0150283035 -0.06445712 0.11146907 -0.08698333 0.14910656 -0.05386478 0.037236176
-0.14104551 0.08205197 -0.008714243 -0.053074557 0.034992397 0.18659166 -0.13063401 0.01592046
0.029776862 -0.23382503 0.11190956 -0.11109304 0.074999966 0.053222846 -0.047657307 -0.07929402
0.8257618 -0.49301264 0.23080525 0.38331896 -0.15304473 -0.5801315 0.18586531 0.4784957
-0.054716613 -0.23584226 0.46193647 0.31306404 0.6781036 0.29935378 -0.70729136 -0.23367143
-0.4850002 0.06126713 -0.3605495 -0.57141787 0.34205773 0.103292264 0.0038976104 -0.2935422
-0.2335529 -0.043881766 -0.026354348 0.56572443 0.32713225 0.35513842 0.06874954 0.36196452
0.102860905 -0.2396872 -0.08822108 -0.57796973 0.052223265 0.80304796 -0.018508306 -0.32954973
-0.48031673 0.14937554 0.18237557 0.16796331 -0.32116854 0.50507677 -0.13624845 -0.4120368
-0.4260471 0.06898223 0.23935662 0.36858073 -0.5943013 0.3214644 -0.08347296 -0.43153772
0.042507358 0.53360283 0.18416709 0.44697648 0.46565986 -0.5285708 -0.094015755 1.0532687
1.1033607 0.1254347 -0.36713624 0.27985764 0.19415504 0.57456195 0.09775767 0.5006094
0.08465819 0.56747824 0.04738119 0.6709845 0.7719896 0.6417357 0.49295115 0.05625403
0.8945499 0.086148866 0.6688238 1.0641514 0.019583443 0.044119142 0.31365916 0.7025445
-0.049897205 0.031701956 -0.1876255 0.60708195 0.4673635 0.3389295 0.20886064 0.1354811
0.0969761 0.24901621 0.0038788687 0.19188975 0.34439877 1.0035477 -0.058627866 -0.01966364
0.45363533 0.10712018 0.030951925 0.012630434 0.48484415 0.2958461 0.31696254 0.008537975
0.7396463 -0.005223405 0.009349341 0.2094076 0.7216311 0.05097284 -0.42603016 0.547172
0.11767915 0.93243146 0.2640379 -0.20523266 0.56990814 0.05671969 0.12629406 -0.02996768
00000000: aaad 2c3f a1d8 86be f8dc e53d e2f8 1a3f
00000010: 8a24 103e 28ff 523e c0f2 dcbe 4645 c63e
00000020: c9e0 e43d 6bd2 cd3e 0311 ddbc 2816 1b3f
00000030: f9f2 343f 5598 da3e 558d 963e 9539 b4be
00000040: 64b3 123f bbcd c13d 841c fb3d fd51 7b3f
00000050: ed1f 5c3e 1118 c5bc 00bb 0d3f 8152 293f
00000060: 8f5c 39bf 0b56 49be 3d87 9ebd c3b5 653f
00000070: 4e76 313f 1e66 0f3f 4793 553d 9850 e5be
00000080: e8ca 9c3b d3c9 523e 4cfa 2f3e 162a d23e
00000090: 8ad9 5f3e beef 6d3f 7f31 2dbc 5505 823e
000000a0: 6983 513f 5feb a63e d68f 063d 4e30 963c
000000b0: 1e08 053f 018e 793e 881f 433e f436 9c3e
000000c0: 5fb5 053f 7d9b 87bd ffc9 393e ceb5 33bd
000000d0: 9751 d43e 678f a63e ca48 0ebf 2500 283f
000000e0: f948 4fbb 712c bebd 5d66 89be ad2f 653f
000000f0: 90b5 183f bfde cd3c fb0a 323e 9fba 7d3e
00000100: 840e 563e 5315 473d 8678 7b3d 663f 42bd
00000110: 8f60 193e 766b fabd 9fc4 f2bc 8e9d c6bd
00000120: 0068 cfbd 94d2 babc 96ae 65ba 5af0 b9bc
00000130: d2b4 25be 63d0 ff3c 55f6 dd3c 325a 82be
00000140: 194d cb3d adc5 153d 9180 583c 3f6f 153e
00000150: 53cc 2dbd 6c7f e13c 03e8 dbbd 1f5d 833e
00000160: 652a cabc 1e7b 84bd a77a fe3c f2a0 6b3d
00000170: 86fe f73d b759 563c 4cda b9bd 9352 cabc
00000180: f1d8 14bd 74c3 18be fbeb 87bd 8766 c4bd
00000190: e222 9cbd 6fde 0b3e 2efe e8bd 9fa5 d03d
000001a0: 5b6b 193d 4639 76bc 1802 84bd e549 e43d
000001b0: 5124 b2bd 64af 183e 51a1 5cbd f684 183d
000001c0: 3c6e 10be dd0a a83d 2fc6 0ebc b564 59bd
000001d0: 3054 0f3d e211 3f3e ecc4 05be a06b 823c
000001e0: 9bee f33c d46f 6fbe d730 e53d bf84 e3bd
000001f0: 9599 993d 3300 5a3d 4f34 43bd e764 a2bd
00000200: 2065 533f 276c fcbe 3658 6c3e 6242 c43e
00000210: c2b7 1cbe 7f83 14bf 7a53 3e3e 63fd f43e
00000220: 871e 60bd a280 71be f082 ec3e ee49 a03e
00000230: 3398 2d3f e644 993e 0c11 35bf 9047 6fbe
00000240: f251 f8be 3ef3 7a3d f299 b8be 7148 12bf
00000250: 3122 af3e e58a d33d 0d6f 7f3b 2a4b 96be
00000260: 7e28 6fbe 5ebd 33bd 13e5 d7bc 51d3 103f
00000270: e17d a73e b4d4 b53e 8fcc 8c3d 6a53 b93e
00000280: bda8 d23d 9070 75be 41ad b4bd d3f5 13bf
00000290: 10e8 553d 8d94 4d3f bb9e 97bc beba a8be
000002a0: 13ec f5be e7f5 183e a9c0 3a3e 93fe 2b3e
000002b0: 3470 a4be b64c 013f b784 0bbe 7df6 d2be
000002c0: d822 dabe 8e46 8d3d e719 753e 9db6 bc3e
000002d0: 2124 18bf fb96 a43e dff3 aabd 83f2 dcbe
000002e0: 321c 2e3d 329a 083f 4c96 3c3e 1ada e43e
000002f0: f86a ee3e 6a50 07bf 558b c0bd 82d1 863f
00000300: ec3a 8d3f f471 003e 48f9 bbbe 8049 8f3e
00000310: 94d0 463e 7e16 133f 2c35 c83d f027 003f
00000320: 4661 ad3d 4146 113f c712 423d a4c5 2b3f
00000330: 1ca1 453f ca48 243f 1864 fc3e a06a 663d
00000340: 3901 653f d16e b03d 0938 2b3f 1d36 883f
00000350: 756d a03c 46b6 343d ef97 a03e f5d9 333f
00000360: 0361 4cbd e9d9 013d e620 40be b969 1b3f
00000370: 454a ef3e 2b88 ad3e 90df 553e 8fbb 0a3e
00000380: 689b c63d 1bfe 7e3e 9e34 7e3b bf7e 443e
00000390: 0955 b03e 4074 803f c623 70bd a415 a1bc
000003a0: e442 e83e d361 db3d e48e fd3c e1ef 4e3c
000003b0: 7e3d f83e 2479 973e ea48 a23e dde2 0b3c
000003c0: 7659 3d3f 1929 abbb fa2d 193c f26e 563e
000003d0: d1bc 383f e6c8 503d a020 dabe 7713 0c3f
000003e0: c401 f13d d4b3 6e3f fa2f 873e 8328 52be
000003f0: 80e5 113f e852 683d 3b53 013e c87e f5bc

lstm.weight_ih_l1 f4 [256, 64]
0.041415337 0.09072584 -0.15921314 -0.14740661 0.018695662 0.27528685 -0.34897706 -0.33299756
-0.26759252 0.17889172 -0.34259424 -0.091042094 -0.023499712 -0.10322821 0.008395047 0.38309568
0.2030078 -0.20137241 0.06273908 -0.057976753 -0.10884852 -0.1905324 -0.5604994 0.08533891
0.8499007 0.09269114 0.31578073 -0.34267533 0.20833221 0.4346718 0.41625935 -0.09584679
-0.73482794 -0.3898399 -0.0641216 0.04037338 -0.1712667 0.12355126 0.008589862 -0.16563413
-0.088821456 0.34305352 0.20941304 -0.1956422 -0.42704558 0.04030285 -0.22951756 0.18162572
-0.29708603 0.31627238 -0.1339814 -0.26419306 0.21171029 0.056423 0.19804153 0.074429095
-0.3846449 -0.12247316 -0.6482515 -0.45968986 0.13664 -0.06228938 -0.043290682 -0.28358635
0.08605107 0.030045807 -0.4017264 0.03787728 0.044416722 -0.11488035 -0.033937205 -0.14107616
-0.00087369175 -0.11535704 0.014644303 0.18389685 0.04327827 0.13187185 0.12927781 0.1413377
-0.22642884 -0.0027451364 -0.16943939 -0.37180907 -0.07250754 -0.14520806 -0.049022995 -0.15022513
-0.117316246 0.297636 0.13358183 -0.33879748 0.1429513 -0.06556545 0.063215084 0.10807323
-0.28555027 0.22780669 0.0018304881 0.1583134 0.012184219 0.34223768 0.10319031 -0.2280795
0.2772287 -0.006516775 0.1546229 0.03700488 -0.04038992 0.012386451 -0.18929072 -0.25704092
-0.21134631 0.26601475 0.0127207935 -0.15305543 -0.28068483 -0.16152893 0.050699376 -0.058524854
0.053179238 0.14671338 0.05630074 0.10140994 0.16271338 0.063747756 -0.109998435 -0.079177044
0.8415335 0.04677106 -0.12805143 -0.044076417 0.020211376 -0.08017852 0.015049248 0.08026173
-0.19027068 -0.03296094 -0.021979602 0.44707784 0.2036229 0.43374357 0.039838195 -0.020356607
-0.21118216 -0.091920555 -0.09455907 -0.87345177 0.09940871 -0.054150816 -0.24554333 -0.57404333
0.14607345 0.1772011 0.20982869 0.11489969 0.82255334 0.61843824 0.2737215 -0.077956825
-0.07537064 -0.5176421 0.21472266 0.03866108 -0.06104712 0.9218763 0.2992953 -0.38445523
0.190126 0.46488664 0.41150218 -0.16934106 -0.47913882 0.16619854 -0.30538133 -0.055377368
-0.6332977 0.28988862 -0.07291369 0.006998291 -0.3031067 -0.13661382 -0.028892798 -0.5390896
-0.2818618 0.25601605 -0.10314867 -0.07363192 0.48625726 -0.044706192 -0.22155237 0.11031438
-0.22963154 0.38137093 -0.52255005 -0.06440932 0.5672858 0.44960925 -0.5141133 0.18248594
-0.27146816 0.5806268 -0.3200141 0.15749337 0.19217849 0.292348 0.43370134 0.42927003
0.51107234 -0.5251838 0.5943371 0.19355935 -0.16418113 -0.20966767 -0.48082322 -0.16729885
0.4682024 0.62597924 0.32800746 -0.07561386 0.2955309 0.20023328 0.3565707 -0.50993365
-0.6373068 -0.64395106 0.5820037 0.23867431 -0.48001707 -0.24699746 0.5626899 -0.25222033
0.32621238 0.49510172 0.54187864 -0.31034386 -0.2871894 -0.22867718 -0.35064 0.41418418
-0.28972515 0.52059823 -0.50240827 -0.29060152 0.7414504 -0.4365671 0.36654827 -0.35521898
-0.35078073 -0.5151889 -0.5870279 -0.50124025 0.123633124 -0.19114771 -0.30421513 0.13123333
00000000: 21a3 293d 78ce b93d c508 23be c2f1 16be
00000010: a527 993c 66f2 8c3e 1fad b2be a87e aabe
00000020: e301 89be 642f 373e 8368 afbe 4774 babd
00000030: 7882 c0bc 5069 d3bd 618b 093c 1e25 c43e
00000040: 47e1 4f3e 9234 4ebe 597d 803d 0879 6dbd
00000050: f9eb debd ed1a 43be e47c 0fbf 2bc6 ae3d
00000060: 1893 593f dad4 bd3d 03ae a13e 2473 afbe
00000070: 0a55 553e 4d8d de3e f21f d53e 524b c4bd
00000080: af1d 3cbf 1899 c7be 2f52 83bd 8f5e 253d
00000090: 8a60 2fbe 7108 fd3d 7ebc 0c3c fe9b 29be
000000a0: 06e8 b5bd b6a4 af3e 5f70 563e 6e56 48be
000000b0: b8a5 dabe 9a14 253d a706 6bbe 18fc 393e
000000c0: a91b 98be 74ee a13e 6c32 09be 5044 87be
000000d0: 95ca 583e ce1b 673d 66cb 4a3e 486e 983d
000000e0: 2df0 c4be 35d3 fabd cff3 25bf 785c ebbe
000000f0: 5beb 0b3e 2623 7fbd 9251 31bd 3b32 91be
00000100: 8b3b b03d a022 f63c 15af cdbe 3525 1b3d
00000110: 4fee 353d 6446 ebbd bd01 0bbd 4576 10be
00000120: 7608 65ba 5040 ecbd a9ee 6f3c 754f 3c3e
00000130: 8e44 313d 6a09 073e 6761 043e d4ba 103e
00000140: f6dc 67be bfe7 33bb 8581 2dbe c25d bebe
00000150: d57e 94bd 6cb1 14be 56cc 48bd 9ed4 19be
00000160: 8043 f0bd bf63 983e adc9 083e dd76 adbe
00000170: d361 123e 2e47 86bd e976 813d 7f55 dd3d
00000180: a533 92be 2846 693e fdec ef3a e81c 223e
00000190: 52a0 473c c739 af3e 7155 d33d ac8d 69be
000001a0: ecf0 8d3e ac8a d5bb 7755 1e3e 6e92 173d
000001b0: e76f 25bd 8af0 4a3c 6dd5 41be de9a 83be
000001c0: 2b6b 58be 1633 883e e06a 503c 90ba 1cbe
000001d0: ecb5 8fbe d767 25be 26aa 4f3d c2b7 6fbd
000001e0: 79d2 593d 083c 163e 9b9b 663d 04b0 cf3d
000001f0: 569e 263e 2f8e 823d dc46 e1bd 9327 a2bd
00000200: bd6e 573f 0393 3f3d ea1f 03be 7989 34bd
00000210: 5492 a53c a334 a4bd 1f91 763c 4360 a43d
00000220: 51d6 42be 0d02 07bd 910e b4bc 63e7 e43e
00000230: 8682 503e a313 de3e 602d 233d e6c2 a6bc
00000240: 2340 58be d840 bcbd 30a8 c1bd 899a 5fbf
00000250: cb96 cb3d 3fcd 5dbd b66f 7bbe 81f4 12bf
00000260: 4794 153e 3574 353e 55dd 563e 8750 eb3d
00000270: db92 523f f851 1e3f 3925 8c3e d4a7 9fbd
00000280: ec5b 9abd 3184 04bf 42e0 5b3e 155b 1e3d
00000290: 8b0c 7abd 1600 6c3f 3c3d 993e 51d7 c4be
000002a0: 64b0 423e 9f05 ee3e 6ab0 d23e be67 2dbe
000002b0: af51 f5be f32f 2a3e f15a 9cbe 61d3 62bd
000002c0: cc1f 22bf 486c 943e c653 95bd eb51 e53b
000002d0: cd30 9bbe 7ee4 0bbe 97b0 ecbc c701 0abf
000002e0: 3150 90be 8914 833e 9c3f d3bd 55cc 96bd
000002f0: b6f6 f83e d71d 37bd a0de 62be 81ec e13d
00000300: 8824 6bbe 0d43 c33e d7c5 05bf 09e9 83bd
00000310: a439 113f 2f33 e63e ee9c 03bf 98dd 3a3e
00000320: e0fd 8abe f5a3 143f e3d8 a3be f145 213e
00000330: 70ca 443e a3ae 953e 1a0e de3e 48c9 db3e
00000340: a3d5 023f 7272 06bf 7a26 183f 6c34 463e
00000350: 191f 28be 1fb3 56be 762e f6be 6450 2bbe
00000360: 3ab8 ef3e 2d40 203f 98f0 a73e 70db 9abd
00000370: d34f 973e f409 4d3e 6f90 b63e 038b 02bf
00000380: 8a26 23bf fad9 24bf 32fe 143f 0a67 743e
00000390: ccc4 f5be e7ec 7cbe 720c 103f 0623 81be
000003a0: 4f05 a73e f97d fd3e 8fb8 0a3f 64e5 9ebe
000003b0: 7d0a 93be 5a2a 6abe 1687 b3be f30f d43e
000003c0: db56 94be ed45 053f d49d 00bf b9c9 94be
000003d0: b2cf 3d3f b985 dfbe 37ac bb3e 43df b5be
000003e0: 8899 b3be 6be3 03bf 7647 16bf 4851 00bf
000003f0: 5d33 fd3d 3abc 43be 16c2 9bbe 0862 063e

lstm.weight_hh_l1 f4 [256, 64]
0.18842468 0.06064637 0.12558754 -0.10434351 0.096717164 -0.18228778 0.0052675395 -0.1259591
0.08794825 -0.015422008 -0.19383417 0.09019709 -0.15558834 -0.2861922 -0.3408303 -0.022885758
0.25592944 0.085832424 -0.24173234 -0.25371617 -0.20228204 -0.115031116 0.022197474 -0.024849981
-0.08015885 0.1711469 -0.06726876 -0.32419813 -0.0054322346 -0.016796224 0.120869525 0.094168276
0.012369998 0.27800637 -0.2158213 0.0448356 0.1413097 -0.029893221 0.08726168 -0.15582474
0.028811771 0.15953718 -0.04662306 -0.11745916 -0.09609946 -0.41245303 0.05999342 0.21388519
0.092903055 -0.08638949 -0.19613163 -0.19546382 -0.27807125 -0.0027456484 0.003907278 -0.0045008953
0.03020251 0.8038539 0.027346555 0.006309888 -0.17884973 -0.080055855 -0.09932695 0.26809254
0.046013817 -0.022502821 -0.026094092 0.31823733 0.05675113 -0.13091046 -0.091184966 0.3338176
0.39204237 -0.0042269626 0.43054125 -0.096307546 -0.120508105 0.049265727 0.43323106 -0.05238636
-0.16950195 0.26861712 -0.18461293 0.12131205 -0.032367464 0.009824726 0.022792296 -0.07658361
-0.0043000504 0.53284633 0.28229028 0.092169404 -0.3323721 0.41136116 -0.03130448 -0.08338595
0.014056711 -0.43475297 0.040061172 -0.2649086 0.04355891 -0.55739623 0.23123449 0.060070783
-0.22348812 -0.13231426 -0.07372755 0.10767288 0.25802636 0.16991684 -0.16649246 0.18997419
0.48901644 0.15640312 -0.23118375 0.15600887 0.20516914 0.34475955 0.072066054 -0.2851217
0.07366787 0.5349521 0.038915314 -0.057134733 -0.114992276 0.0045880876 0.21245575 -0.25711837
-0.19516991 -0.14447458 0.115749635 0.134256 0.0029778322 0.21910487 -0.05586063 0.0842809
0.10350514 0.07378398 -0.005286163 0.21530306 0.08913825 -0.22710302 -0.018428523 0.08711515
0.19861118 -0.064179145 0.19657186 -0.035529982 0.12187728 0.13997777 -0.16109061 -0.12127874
0.08849883 -0.024555659 -0.15945728 -0.24184108 0.11921726 0.091510095 0.07440985 0.10647912
-0.13674822 0.2511414 0.10385963 0.25920573 -0.06432096 -0.0037058087 -0.0049801236 -0.0906233
-0.016029362 0.25378996 0.021481311 -0.07200754 0.07593105 -0.0042407964 -0.05596382 -0.057289805
-0.0029486155 -0.056791563 -0.0008973139 -0.015224613 -0.07828366 -0.32200944 -0.14650013 -0.17888357
0.14978114 0.013591275 -0.06283573 0.140636 0.123250715 -0.1412169 -0.113991685 -0.0031394144
-0.22144955 -0.2860375 0.364569 -0.018449383 0.48739773 0.20782022 -0.16386344 0.06312285
0.086127706 -0.31419286 -0.069283985 0.31532827 -0.21257515 -0.1925936 -0.6171432 -0.10178945
0.8545289 -0.2139343 0.17928697 -0.28635097 0.122476555 0.20004384 -0.25233027 -0.10324715
0.16204903 0.4278224 -0.084403425 -0.35780236 -0.22987461 0.20420359 0.32019722 0.12023026
-0.28308225 -0.51581633 0.045491595 0.21209094 -0.036567096 -0.81547904 -0.18118733 -0.19623639
-0.18885174 0.24376604 0.3221352 -0.24027236 0.14488813 -0.08212648 -0.29391173 -0.18062983
0.47015887 -0.27204415 0.01643256 -0.19720371 0.2822303 -0.36971778 -0.25697687 -0.06139627
0.26034436 -0.31019643 -0.021193154 0.06365873 0.07012513 0.010786628 -0.3113906 0.06637364
00000000: 66f2 403e 5468 783d 059a 003e 0db2 d5bd
00000010: a613 c63d a6a9 3abe 539b ac3b 6cfb 00be
00000020: 361e b43d 97ac 7cbc 777c 46be 40b9 b83d
00000030: 8d52 1fbe c987 92be 4f81 aebe ea7a bbbc
00000040: 2f09 833e e9c8 af3d af88 77be 16e7 81be
00000050: 0623 4fbe 6f95 ebbd 7ad7 b53c 3092 cbbc
00000060: 532a a4bd 2241 2f3e 34c4 89bd 4cfd a5be
00000070: e300 b2bb 3c98 89bc 718a f73d 4cdb c03d
00000080: 88ab 4a3c da56 8e3e 4200 5dbe 89a5 373d
00000090: 7db3 103e a1e2 f4bc 40b6 b23d 8590 1fbe
000000a0: aa06 ec3c b75d 233e d2f7 3ebd 6e8e f0bd
000000b0: cbcf c4bd 0b2d d3be a9bb 753d b804 5b3e
000000c0: f543 be3d f9ec b0bd bbd6 48be ab27 48be
000000d0: 5b5f 8ebe 56f0 33bb a008 803b 3f7c 93bb
000000e0: 416b f73c 5fc9 4d3f e205 e03c 2dc3 ce3b
000000f0: 6224 37be 53f4 a3bd ee6b cbbd 6d43 893e
00000100: fc78 3c3d d657 b8bc 47c3 d5bc 01f0 a23e
00000110: df73 683d 640d 06be 2fbf babd 24ea aa3e
00000120: c7b9 c83e 5582 8abb e76f dc3e e43c c5bd
00000130: f4cc f6bd dcca 493d 76d0 dd3e 1493 56bd
00000140: eb91 2dbe 2f88 893e 2c0b 3dbe 7472 f83d
00000150: bf93 04bd e3f7 203c e9b6 ba3c ded7 9cbd
00000160: 70e7 8cbb 9e68 083f 5a88 903e 50c3 bc3d
00000170: ad2c aabe ee9d d23e 2039 00bd 41c6 aabd
00000180: 1f4e 663c f197 debe 2f17 243d 1aa2 87be
00000190: d46a 323d 85b1 0ebf bcc8 6c3e c80c 763d
000001a0: 12da 64be 647d 07be 78fe 96bd 9983 dc3d
000001b0: 081c 843e aefe 2d3e 007d 2abe 9888 423e
000001c0: 5d60 fa3e 2428 203e 6fbb 6cbe cac0 1f3e
000001d0: dc17 523e 5384 b03e 5e97 933d 79fb 91be
000001e0: 2edf 963d 9ff2 083f aa65 1f3d 1c06 6abd
000001f0: 1281 ebbd ab57 963b 008e 593e 05a5 83be
00000200: 9fda 47be 25f1 13be 250e ed3d 687a 093e
00000210: bc27 433b 075d 603e 1ece 64bd 779b ac3d
00000220: 81fa d33d 0e1c 973d 8d37 adbb 6878 5c3e
00000230: 1d8e b63d b28d 68be 6af7 96bc 6e69 b23d
00000240: bb60 4b3e 5b70 83bd 224a 493e e387 11bd
00000250: cc9a f93d 5556 0f3e f0f4 24be fd60 f8bd
00000260: e03e b53d f328 c9bc c548 23be 30a5 77be
00000270: 2e28 f43d a569 bb3d 3164 983d ba11 da3d
00000280: ba07 0cbe 9b95 803e 5cb4 d43d 9db6 843e
00000290: b5ba 83bd 27dd 72bb 4e30 a3bb b598 b9bd
000002a0: 0250 83bc c2f0 813e 93f9 af3c b078 93bd
000002b0: bd81 9b3d 61f6 8abb 523a 65bd b7a8 6abd
000002c0: 8f3d 41bb 459e 68bd b739 6bba a870 79bc
000002d0: 2f53 a0bd 6cde a4be 2104 16be 412d 37be
000002e0: 3a60 193e f0ad 5e3c 05b0 80bd e202 103e
000002f0: df6a fc3d 2a9b 10be 7974 e9bd a2be 4dbb
00000300: acc3 62be 8273 92be caa8 ba3e 2923 97bc
00000310: 328c f93e d3ce 543e d1cb 27be 8e46 813d
00000320: b963 b03d e3dd a0be c3e4 8dbd b572 a13e
00000330: 4dad 59be 4237 45be 19fd 1dbf fd76 d0bd
00000340: 68c2 5a3f 9811 5bbe 0197 373e 989c 92be
00000350: fdd4 fa3d 4bd8 4c3e 6f31 81be 3e73 d3bd
00000360: 2ef0 253e 8a0b db3e b4db acbd df31 b7be
00000370: 4064 6bbe bf1a 513e e4f0 a33e 483b f63d
00000380: 28f0 90be 8a0c 04bf 6555 3a3d 5e2e 593e
00000390: 61c7 15bd 3cc3 50bf 2c89 39be 31f2 48be
000003a0: 5a62 41be ce9d 793e e8ee a43e f509 76be
000003b0: 8e5d 143e ee31 a8bd 997b 96be 07f7 38be
000003c0: aab8 f03e 5f49 8bbe 939d 863c c5ef 49be
000003d0: 7d80 903e a64b bdbe 7992 83be a87a 7bbd
000003e0: db4b 853e 11d2 9ebe 449d adbc 825f 823d
000003f0: c49d 8f3d 66ba 303c 976e 9fbe e7ee 873d

lstm.bias_ih_l1 f4 [256]
0.10784359 0.06841449 0.44990265 0.14000167 0.011735357 0.25208008 0.06690207 0.3190653
0.4651842 0.35164875 0.15063944 0.23218527 0.21477695 0.18837635 0.04738262 0.3928078
-0.20819761 0.44552234 0.310689 0.20184363 0.044312533 0.46095 0.20906675 0.56504667
0.34116727 -0.22064015 0.20478669 0.16404022 0.06985231 0.26868027 0.31194896 -0.015584502
0.25166392 0.18903777 0.38029408 0.46744904 0.019960508 0.20809254 0.22746521 0.5300763
0.20921116 0.21388018 0.10962439 0.20625441 0.0620092 0.0958206 0.14335738 0.41531563
0.2053518 0.31988192 0.17523488 0.11065487 -0.01517498 0.6014039 0.36068538 0.21639918
0.28643072 -0.03085525 0.21976411 0.100216016 0.34692493 0.18702891 0.1896998 0.29101387
-0.013739303 -0.01438344 0.04802702 0.10568588 -0.064390354 -0.05815043 0.067158714 -0.052978367
0.13458341 0.0483233 -0.11686032 -0.15884194 0.031720426 -0.065473594 0.08960812 0.18201937
-0.055102084 0.19170251 0.105911545 0.10907027 0.03593419 0.15163752 -0.048393372 0.051962417
-0.124634 -0.08979514 0.10941181 0.0012353652 -0.015902108 0.116090804 0.12322878 0.0086166775
0.064291544 -0.008583789 -0.016365092 0.12504654 -0.00010848654 0.111438744 0.026491564 -0.053087797
0.099913985 -0.19187191 0.032557745 0.02814034 -0.106215686 -0.031450372 -0.009143926 0.07723953
0.11585342 0.14362213 0.0474659 -0.03331239 -0.017298453 0.12954998 0.18776996 0.07351124
0.062454432 -0.11631242 -0.049513433 -0.08696375 0.07725824 -0.098364756 0.060906045 0.0053144717
0.079232655 -0.08509371 0.21961649 0.18621418 -0.020828582 0.08523023 -0.08715384 -0.1261008
-0.008639163 -0.043716192 -0.11697525 0.21841253 -0.04236849 -0.0063976357 0.020427609 -0.16680412
-0.010817252 -0.41172478 0.0033138182 -0.13214266 -0.13772815 0.102247104 -0.13250878 0.008352093
0.10609295 -0.059929192 -0.076808065 -0.15728804 0.1547337 0.07816482 0.21186988 0.07992092
-0.26637182 -0.10327798 0.06617699 0.0489522 -0.11433696 -0.19914694 -0.038126793 -0.18786602
-0.024243541 -0.23306875 0.01305617 0.08828228 -0.07874231 0.061454516 -0.14106849 -0.31524664
0.010675612 -0.4003389 0.11814362 -0.04690937 0.1751268 -0.28710967 0.052448165 0.13998069
0.24279849 -0.072419256 0.03153879 -0.049354043 0.054752246 -0.17119865 -0.38498858 0.011706175
0.03657341 0.20407212 0.16025487 -0.09786889 -0.053838816 0.03845734 -0.0060519497 0.045155328
0.4464759 0.26913747 -0.0068498584 0.1006932 0.0423099 0.1445723 0.02816379 0.48757514
-0.35440785 0.3937183 0.32149518 0.02026657 0.13910092 0.35230866 0.39394352 0.37972367
0.32473594 -0.06718696 0.36012378 0.12335307 0.22101137 0.36735395 0.083449855 0.23334338
0.36251947 -0.2151651 0.5173606 0.5451376 -0.04356579 -0.12547709 0.18573332 0.24143963
0.32042983 0.11858142 0.2281596 0.23511387 -0.024829838 0.25013795 0.12712388 0.45821765
-0.05775196 0.43113598 0.14525597 0.38864583 0.0918548 0.2960657 0.31420162 0.2143214
0.20532852 -0.039025113 0.008825678 0.11545719 0.27430305 0.14913431 0.007323422 0.1581456
00000000: 1add dc3d e51c 8c3d a459 e63e 995c 0f3e
00000010: a845 403c a410 813e f403 893d 875c a33e
00000020: a02c ee3e 4e0b b43e 3a41 1a3e fac1 6d3e
00000030: 7dee 5b3e bbe5 403e 4714 423d 1b1e c93e
00000040: c131 55be 811b e43e a112 9f3e 19b0 4e3e
00000050: 0f81 353d a301 ec3e 9815 563e e6a6 103f
00000060: 7aad ae3e 7eef 61be 9ab3 513e 29fa 273e
00000070: ba0e 8f3d 7690 893e c6b7 9f3e 2456 7fbc
00000080: 18da 803e 1e93 413e e8b5 c23e 7b55 ef3e
00000090: 3884 a33c 3616 553e a4ec 683e 15b3 073f
000000a0: 733b 563e 6803 5b3e c182 e03d 5b34 533e
000000b0: 5cfd 7d3d 973d c43d 47cc 123e 40a4 d43e
000000c0: be47 523e 90c7 a33e c670 333e 059f e23d
000000d0: 7ba0 78bc 9bf5 193f c1ab b83e bf97 5d3e
000000e0: 0ca7 923e 26c4 fcbc d809 613e 0e3e cd3d
000000f0: 25a0 b13e 8284 3f3e aa40 423e c5ff 943e
00000100: d01a 61bc 85a8 6bbc fbb7 443d d771 d83d
00000110: 17df 83bd 252f 6ebd 828a 893d d8ff 58bd
00000120: 3cd0 093e a7ee 453d 7754 efbd 76a7 22be
00000130: 47ed 013d 0517 86bd 7684 b73d 4963 3a3e
00000140: b9b2 61bd aa4d 443e 27e8 d83d 3c60 df3d
00000150: bb2f 133d de46 1b3e 2138 46bd 8bd6 543d
00000160: 1c40 ffbd 84e6 b7bd 4d13 e03d faeb a13a
00000170: 2345 82bc 04c1 ed3d 5f5f fc3d f72c 0d3c
00000180: 49ab 833d 05a3 0cbc 1610 86bc 330c 003e
00000190: 4583 e3b8 ff39 e43d d604 d93c 9772 59bd
000001a0: b49f cc3d 127a 44be 455b 053d 9286 e63c
000001b0: 9c87 d9bd 1bd2 00bd 68d0 15bc c22f 9e3d
000001c0: 8f44 ed3d ae11 133e 9b6b 423d 9372 08bd
000001d0: 7cb5 8dbc c0a8 043e c546 403e 108d 963d
000001e0: 38d0 7f3d 3535 eebd 99ce 4abd 0d1a b2bd
000001f0: 9139 9e3d 7673 c9bd 9e78 793d 0525 ae3b
00000200: bb44 a23d 9c45 aebd 25e3 603e eeae 3e3e
00000210: b4a0 aabc 308d ae3d b67d b2bd 9120 01be
00000220: 478b 0dbc c00f 33bd b890 efbd 89a7 5f3e
00000230: 958a 2dbd 42a3 d1bb cd57 a73c b3ce 2abe
00000240: d83a 31bc 97cd d2be a52c 593b 6850 07be
00000250: 9c08 0dbe ee66 d13d 62b0 07be 38d7 083c
00000260: 4347 d93d 5078 75bd 8c4d 9dbd 1e10 21be
00000270: 8372 1e3e e114 a03d 6bf4 583e 94ad a33d
00000280: e361 88be 6883 d3bd cd87 873d 1a82 483d
00000290: 7f29 eabd 2ded 4bbe d72a 1cbd f35f 40be
000002a0: 649a c6bc 93a9 6ebe 8ce9 553c 57cd b43d
000002b0: a643 a1bd bbb7 7b3d 4274 10be 0268 a1be
000002c0: c3e8 2e3c 38f9 ccbe 48f5 f13d 0a24 40bd
000002d0: 7154 333e 0a00 93be e3d3 563d 1957 0f3e
000002e0: 2ba0 783e 8c50 94bd d12e 013d 7727 4abd
000002f0: e443 603d b34e 2fbe 391d c5be 42cb 3f3c
00000300: 00ce 153d 48f8 503e da19 243e 7c6f c8bd
00000310: 1786 5cbd 7285 1d3d 6f4f c6bb cbf4 383d
00000320: 7d98 e43e 63cc 893e c774 e0bb 3d38 ce3d
00000330: 254d 2d3d c30a 143e c0b7 e63c 73a3 f93e
00000340: f274 b5be 7295 c93e 049b a43e 1406 a63c
00000350: 7970 0e3e cd61 b43e f7b2 c93e 246b c23e
00000360: ca43 a63e 5199 89bd 2562 b83e 89a0 fc3d
00000370: ce50 623e d115 bc3e c2e7 aa3d 91f1 6e3e
00000380: 279c b93e 3d54 5cbe bf71 043f 238e 0b3f
00000390: 0b72 32bd 117d 00be e030 3e3e f33b 773e
000003a0: 610f a43e d1da f23d aca2 693e b1c1 703e
000003b0: f267 cbbc 1512 803e c32c 023e 819b ea3e
000003c0: 528d 6cbd dbbd dc3e fbbd 143e 96fc c63e
000003d0: 5f1e bc3d ec95 973e 09df a03e 1277 5b3e
000003e0: a441 523e ccd8 1fbd 9499 103c d274 ec3d
000003f0: 7371 8c3e aab6 183e 51f9 ef3b ecf0 213e

lstm.bias_hh_l1 f4 [256]
0.15146711 0.14645973 0.41247055 0.35726553 -0.19205445 0.13692388 0.13442862 0.30789486
0.41748878 0.32963836 0.12517025 0.13763271 0.10208986 0.0557579 -0.13307728 0.49216133
-0.13464817 0.30213213 0.30050513 0.11421572 0.12117278 0.46069694 0.33037555 0.41380382
0.44383475 -0.044424165 0.055408828 0.08368862 0.02725145 0.27612618 0.13811135 0.07411622
0.20432302 0.046105396 0.4675185 0.5149309 -0.116463475 0.24024777 0.13044287 0.5841079
0.015704127 0.2727882 0.03302001 0.2387909 0.0036926211 0.103812866 0.061134282 0.54357356
0.1940666 0.4058495 0.3506147 0.3246385 0.0055545666 0.4500291 0.3233251 0.22995348
0.26086235 0.0088576395 0.15520704 0.13567367 0.4826628 0.16163918 0.3078358 0.26649466
0.15200776 -0.11221845 -0.045052454 -0.079315156 -0.08241924 0.122964464 0.00659914 0.15603654
0.050526954 0.12524515 0.02898791 -0.02517886 0.1309595 0.1282329 -0.022752805 0.25806096
-0.14891933 0.255378 0.18058884 0.012625434 0.16238067 0.096119635 0.04544236 -0.030693648
-0.114486195 -0.18828464 -0.043319587 0.104475096 0.0597175 0.10444366 -0.097436786 0.067351565
0.07906495 0.08251036 -0.101933286 -0.016005244 0.057363458 0.17516664 -0.0450649 0.04266863
-0.0853723 -0.06543328 0.02933228 0.050093327 0.00014185916 -0.11752648 -0.08211137 0.08262885
0.08303345 0.080433704 0.13379644 -0.014890547 -0.105645865 0.09933942 0.0059548235 0.15640041
0.057315532 -0.03556212 0.054507423 0.043516587 0.07908713 0.011781827 0.051074214 0.0011485328
0.05841693 -0.067888804 0.2897047 -0.02554435 0.11600548 -0.008401711 -0.04438808 -0.15670003
-0.13708222 0.109753825 -0.031263538 0.28140575 -0.10327019 0.05443207 -0.04046792 -0.14186157
0.02252971 -0.40981945 -0.14117126 0.02418392 -0.051679496 -0.0016268431 0.04901414 -0.017064359
0.044140805 -0.03951026 0.0041273576 -0.2601356 0.1258947 0.29326418 0.13425125 0.11851821
-0.09067465 0.08665113 0.18407075 0.19932112 -0.06055888 -0.25829735 -0.07493535 -0.08494122
0.21009718 -0.046367675 0.01978818 -0.05901531 0.1217044 -0.109512165 -0.10971995 -0.27325073
0.018145155 -0.3416401 0.078591 -0.20771842 0.13765536 -0.1781811 0.15283902 -0.02136122
0.038625363 -0.10992636 0.05451848 0.0047029797 -0.11094902 -0.14284983 -0.26890454 0.0870358
0.04765735 0.17479311 0.21175455 0.0157522 -0.13205488 0.12220745 0.19517013 0.0459659
0.40960518 0.16700618 -0.01731126 0.20480184 0.1262932 0.20841026 -0.14534286 0.48219725
-0.3777024 0.48352247 0.44608203 0.0034585579 0.058074493 0.14521457 0.19690003 0.3360048
0.1458636 -0.01650904 0.18980053 0.07045562 0.21122594 0.2633313 0.1773591 0.07921703
0.2788036 -0.02763592 0.3685904 0.48997542 -0.04218106 -0.053419407 0.13669129 0.3244376
0.09667493 0.19695286 0.15202089 0.24218412 -0.11330876 0.15257907 0.07188581 0.4181585
0.042969294 0.36534995 0.015259804 0.37177446 0.13289672 0.32104325 0.21542823 0.0882388
0.38572612 -0.21602039 0.10099381 0.12460373 0.2996387 0.19573131 -0.120772295 0.24397984
00000000: 321a 1b3e 8af9 153e 572f d33e 82eb b63e
00000010: eca9 44be c635 0c3e a8a7 093e 65a4 9d3e
00000020: 17c1 d53e 5cc6 a83e a12c 003e 97ef 0c3e
00000030: 7d14 d13d 6562 643d 6945 08be 92fc fb3e
00000040: 36e1 09be 10b1 9a3e cfdb 993e eee9 e93d
00000050: 6f29 f83d 78e0 eb3e fc26 a93e 18de d33e
00000060: 4f3e e33e 1df6 35bd 5ef4 623d f064 ab3d
00000070: 6f3e df3c 6960 8d3e 106d 0d3e 3fca 973d
00000080: 0e3a 513e 03d9 3c3d 965e ef3e 83d2 033f
00000090: 6784 eebd 8303 763e d192 053e 1888 153f
000000a0: f1a5 803c e5aa 8b3e fd3f 073d 9a85 743e
000000b0: e7ff 713b d79b d43d f167 7a3d a327 0b3f
000000c0: 65b9 463e 81cb cf3e c583 b33e 0437 a63e
000000d0: 1503 b63b 376a e63e de8a a53e ed78 6b3e
000000e0: c08f 853e a21f 113c 98ee 1e3e 0aee 0a3e
000000f0: 941f f73e be84 253e a79c 9d3e fd71 883e
00000100: eca7 1b3e c9d2 e5bd ec88 38bd fc6f a2bd
00000110: 6bcb a8bd cbd4 fb3d 993d d83b 0bc8 1f3e
00000120: 5af5 4e3d 4440 003e 0e78 ed3c e643 cebc
00000130: 3f1a 063e 7c4f 033e 1764 babc 9120 843e
00000140: 4f7e 18be e8c0 823e 48ec 383e e9da 4e3c
00000150: 1e47 263e 5fda c43d c521 3a3d 3f71 fbbc
00000160: bd77 eabd b0cd 40be e16f 31bd 0af7 d53d
00000170: 569a 743d 8fe6 d53d f08c c7bd 9eef 893d
00000180: ceec a13d 31fb a83d 66c2 d0bd 6e1d 83bc
00000190: f2f5 6a3d e25e 333e f995 38bd 4dc5 2e3d
000001a0: acd7 aebd e201 86bd 404a f03c a92e 4d3d
000001b0: 07c0 1439 b9b1 f0bd 022a a8bd 5139 a93d
000001c0: 710d aa3d 6dba a43d ef01 093e 7bf7 73bc
000001d0: dc5c d8bd 7772 cb3d ae20 c33b 6e27 203e
000001e0: b1c3 6a3d 96a9 11bd 2d43 5f3d 733e 323d
000001f0: 6ff8 a13d 9008 413c 3233 513d 5e8a 963a
00000200: 9746 6f3d 4909 8bbd 2d54 943e 6242 d1bc
00000210: 4894 ed3d 54a7 09bc 46d0 35bd f975 20be
00000220: 485f 0cbe 9dc6 e03d 320e 00bd 6a14 903e
00000230: 527f d3bd 2af4 5e3d b1c1 25bd 2944 11be
00000240: 3a90 b83c dbd3 d1be 338f 10be 5b1d c63c
00000250: e1ad 53bd cc3b d5ba 0dc3 483d 8eca 8bbc
00000260: fdcc 343d 83d5 21bd c93e 873b 7e30 85be
00000270: 8aea 003e b926 963e 2979 093e adb9 f23d
00000280: a2b3 b9bd 2676 b13d 0b7d 3c3e d61a 4c3e
00000290: 970c 78bd 8d3f 84be b477 99bd aaf5 adbd
000002a0: b723 573e 08ec 3dbd d21a a23c 0aba 71bd
000002b0: 2840 f93d ea47 e0bd dab4 e0bd 85e7 8bbe
000002c0: 26a5 943c 74eb aebe 51f4 a03d 23b4 54be
000002d0: 87f5 0c3e 1b75 36be d581 1c3e bafd aebc
000002e0: a135 1e3d 1221 e1bd c54e 5f3d 741b 9a3b
000002f0: 3d39 e3bd 3a47 12be dbad 89be d33f b23d
00000300: 5a34 433d f7fc 323e 2fd6 583e c20a 813c
00000310: 6539 07be e647 fa3d aeda 473e bd46 3c3d
00000320: c5b7 d13e ab03 2b3e 58d0 8dbc 93b7 513e
00000330: 0153 013e 8069 553e c2d4 14be 8fe2 f63e
00000340: 3562 c1be 4290 f73e dd64 e43e f9a8 623b
00000350: 85df 6d3d 21b3 143e 29a0 493e d208 ac3e
00000360: 445d 153e f73d 87bc 125b 423e 094b 903d
00000370: 9d4b 583e 5cd3 863e a09d 353e 8a3c a23d
00000380: 58bf 8e3e ba64 e2bc e2b7 bc3e 0fde fa3e
00000390: 0cc6 2cbd 4fce 5abd cdf8 0b3e af1c a63e
000003a0: 81fd c53d 03ae 493e 5dab 1b3e 1dff 773e
000003b0: 6c0e e8bd b03d 1c3e de38 933d df18 d63e
000003c0: 9200 303d 260f bb3e 4204 7a3c 3959 be3e
000003d0: 1416 083e c85f a43e 3899 5c3e 8bb6 b43d
000003e0: e57d c53e 7334 5dbe d8d5 ce3d 3e30 ff3d
000003f0: 3e6a 993e ca6d 483e 7757 f7bd dad5 793e
